node {
  name: "dense_33_input"
  op: "Placeholder"
  attr {
    key: "dtype"
    value {
      type: DT_FLOAT
    }
  }
  attr {
    key: "shape"
    value {
      shape {
        dim {
          size: -1
        }
        dim {
          size: 7
        }
      }
    }
  }
}
node {
  name: "dense_33/kernel"
  op: "Const"
  attr {
    key: "dtype"
    value {
      type: DT_FLOAT
    }
  }
  attr {
    key: "value"
    value {
      tensor {
        dtype: DT_FLOAT
        tensor_shape {
          dim {
            size: 7
          }
          dim {
            size: 24
          }
        }
        tensor_content: "…"
      }
    }
  }
}
node {
  name: "dense_33/kernel/read"
  op: "Identity"
  input: "dense_33/kernel"
  attr {
    key: "T"
    value {
      type: DT_FLOAT
    }
  }
  attr {
    key: "_class"
    value {
      list {
        s: "loc:@dense_33/kernel"
      }
    }
  }
}
node {
  name: "dense_33/bias"
  op: "Const"
  attr {
    key: "dtype"
    value {
      type: DT_FLOAT
    }
  }
  attr {
    key: "value"
    value {
      tensor {
        dtype: DT_FLOAT
        tensor_shape {
          dim {
            size: 24
          }
        }
        tensor_content: "…"
      }
    }
  }
}
node {
  name: "dense_33/bias/read"
  op: "Identity"
  input: "dense_33/bias"
  attr {
    key: "T"
    value {
      type: DT_FLOAT
    }
  }
  attr {
    key: "_class"
    value {
      list {
        s: "loc:@dense_33/bias"
      }
    }
  }
}
node {
  name: "dense_33/MatMul"
  op: "MatMul"
  input: "dense_33_input"
  input: "dense_33/kernel/read"
  attr {
    key: "T"
    value {
      type: DT_FLOAT
    }
  }
  attr {
    key: "transpose_a"
    value {
      b: false
    }
  }
  attr {
    key: "transpose_b"
    value {
      b: false
    }
  }
}
node {
  name: "dense_33/BiasAdd"
  op: "BiasAdd"
  input: "dense_33/MatMul"
  input: "dense_33/bias/read"
  attr {
    key: "T"
    value {
      type: DT_FLOAT
    }
  }
  attr {
    key: "data_format"
    value {
      s: "NHWC"
    }
  }
}
node {
  name: "dense_33/Relu"
  op: "Relu"
  input: "dense_33/BiasAdd"
  attr {
    key: "T"
    value {
      type: DT_FLOAT
    }
  }
}
node {
  name: "dense_34/kernel"
  op: "Const"
  attr {
    key: "dtype"
    value {
      type: DT_FLOAT
    }
  }
  attr {
    key: "value"
    value {
      tensor {
        dtype: DT_FLOAT
        tensor_shape {
          dim {
            size: 24
          }
          dim {
            size: 24
          }
        }
        tensor_content: "…"
      }
    }
  }
}
node {
  name: "dense_34/kernel/read"
  op: "Identity"
  input: "dense_34/kernel"
  attr {
    key: "T"
    value {
      type: DT_FLOAT
    }
  }
  attr {
    key: "_class"
    value {
      list {
        s: "loc:@dense_34/kernel"
      }
    }
  }
}
node {
  name: "dense_34/bias"
  op: "Const"
  attr {
    key: "dtype"
    value {
      type: DT_FLOAT
    }
  }
  attr {
    key: "value"
    value {
      tensor {
        dtype: DT_FLOAT
        tensor_shape {
          dim {
            size: 24
          }
        }
        tensor_content: "…"
      }
    }
  }
}
node {
  name: "dense_34/bias/read"
  op: "Identity"
  input: "dense_34/bias"
  attr {
    key: "T"
    value {
      type: DT_FLOAT
    }
  }
  attr {
    key: "_class"
    value {
      list {
        s: "loc:@dense_34/bias"
      }
    }
  }
}
node {
  name: "dense_34/MatMul"
  op: "MatMul"
  input: "dense_33/Relu"
  input: "dense_34/kernel/read"
  attr {
    key: "T"
    value {
      type: DT_FLOAT
    }
  }
  attr {
    key: "transpose_a"
    value {
      b: false
    }
  }
  attr {
    key: "transpose_b"
    value {
      b: false
    }
  }
}
node {
  name: "dense_34/BiasAdd"
  op: "BiasAdd"
  input: "dense_34/MatMul"
  input: "dense_34/bias/read"
  attr {
    key: "T"
    value {
      type: DT_FLOAT
    }
  }
  attr {
    key: "data_format"
    value {
      s: "NHWC"
    }
  }
}
node {
  name: "dense_34/Relu"
  op: "Relu"
  input: "dense_34/BiasAdd"
  attr {
    key: "T"
    value {
      type: DT_FLOAT
    }
  }
}
node {
  name: "dense_35/kernel"
  op: "Const"
  attr {
    key: "dtype"
    value {
      type: DT_FLOAT
    }
  }
  attr {
    key: "value"
    value {
      tensor {
        dtype: DT_FLOAT
        tensor_shape {
          dim {
            size: 24
          }
          dim {
            size: 24
          }
        }
        tensor_content: "…"
      }
    }
  }
}
node {
  name: "dense_35/kernel/read"
  op: "Identity"
  input: "dense_35/kernel"
  attr {
    key: "T"
    value {
      type: DT_FLOAT
    }
  }
  attr {
    key: "_class"
    value {
      list {
        s: "loc:@dense_35/kernel"
      }
    }
  }
}
node {
  name: "dense_35/bias"
  op: "Const"
  attr {
    key: "dtype"
    value {
      type: DT_FLOAT
    }
  }
  attr {
    key: "value"
    value {
      tensor {
        dtype: DT_FLOAT
        tensor_shape {
          dim {
            size: 24
          }
        }
        tensor_content: "…"
      }
    }
  }
}
node {
  name: "dense_35/bias/read"
  op: "Identity"
  input: "dense_35/bias"
  attr {
    key: "T"
    value {
      type: DT_FLOAT
    }
  }
  attr {
    key: "_class"
    value {
      list {
        s: "loc:@dense_35/bias"
      }
    }
  }
}
node {
  name: "dense_35/MatMul"
  op: "MatMul"
  input: "dense_34/Relu"
  input: "dense_35/kernel/read"
  attr {
    key: "T"
    value {
      type: DT_FLOAT
    }
  }
  attr {
    key: "transpose_a"
    value {
      b: false
    }
  }
  attr {
    key: "transpose_b"
    value {
      b: false
    }
  }
}
node {
  name: "dense_35/BiasAdd"
  op: "BiasAdd"
  input: "dense_35/MatMul"
  input: "dense_35/bias/read"
  attr {
    key: "T"
    value {
      type: DT_FLOAT
    }
  }
  attr {
    key: "data_format"
    value {
      s: "NHWC"
    }
  }
}
node {
  name: "dense_35/Relu"
  op: "Relu"
  input: "dense_35/BiasAdd"
  attr {
    key: "T"
    value {
      type: DT_FLOAT
    }
  }
}
node {
  name: "dense_36/kernel"
  op: "Const"
  attr {
    key: "dtype"
    value {
      type: DT_FLOAT
    }
  }
  attr {
    key: "value"
    value {
      tensor {
        dtype: DT_FLOAT
        tensor_shape {
          dim {
            size: 24
          }
          dim {
            size: 1
          }
        }
        tensor_content: "…"
      }
    }
  }
}
node {
  name: "dense_36/kernel/read"
  op: "Identity"
  input: "dense_36/kernel"
  attr {
    key: "T"
    value {
      type: DT_FLOAT
    }
  }
  attr {
    key: "_class"
    value {
      list {
        s: "loc:@dense_36/kernel"
      }
    }
  }
}
node {
  name: "dense_36/bias"
  op: "Const"
  attr {
    key: "dtype"
    value {
      type: DT_FLOAT
    }
  }
  attr {
    key: "value"
    value {
      tensor {
        dtype: DT_FLOAT
        tensor_shape {
          dim {
            size: 1
          }
        }
        float_val: 0.688647449016571
      }
    }
  }
}
node {
  name: "dense_36/bias/read"
  op: "Identity"
  input: "dense_36/bias"
  attr {
    key: "T"
    value {
      type: DT_FLOAT
    }
  }
  attr {
    key: "_class"
    value {
      list {
        s: "loc:@dense_36/bias"
      }
    }
  }
}
node {
  name: "dense_36/MatMul"
  op: "MatMul"
  input: "dense_35/Relu"
  input: "dense_36/kernel/read"
  attr {
    key: "T"
    value {
      type: DT_FLOAT
    }
  }
  attr {
    key: "transpose_a"
    value {
      b: false
    }
  }
  attr {
    key: "transpose_b"
    value {
      b: false
    }
  }
}
node {
  name: "dense_36/BiasAdd"
  op: "BiasAdd"
  input: "dense_36/MatMul"
  input: "dense_36/bias/read"
  attr {
    key: "T"
    value {
      type: DT_FLOAT
    }
  }
  attr {
    key: "data_format"
    value {
      s: "NHWC"
    }
  }
}
library {
}
